best_model.pth (torch, 99618 bytes, 25 tensors)

net.0.weight f4 [150, 55]
000000 cd 55 6b 3d fd cb 3b bd 14 6e 95 3d f3 ff 08 be
       0.057454873 -0.045848835 0.07296386 -0.13378887
000010 8c 17 ef 3d 13 3d 36 3e 64 af fe bb ae 2f bd bd
       0.11674413 0.17796735 -0.007772373 -0.0923761
000020 fc 9a 93 3c b7 d5 42 bd ab d8 30 bd b1 79 84 3d
       0.018018238 -0.047567096 -0.04317538 0.06468523
000030 25 3e 89 bd 9c 4f 1c 3d 0d ad 1c bd 6d 9a 8b bd
       -0.06701306 0.03816186 -0.03825097 -0.06816564
000040 08 b0 3c 3d 26 62 60 bd 75 f0 1d 3d ce 50 1e 3e
       0.046066314 -0.0547811 0.038559396 0.15460512
000050 d9 bb 08 3d 45 9a 3d 3d 52 0a e8 3d c8 bf a6 3d
       0.03338227 0.0462897 0.113300934 0.08142048
000060 c1 a1 7f bd 33 fb c5 bc e8 f4 05 bd c8 33 04 be
       -0.06241012 -0.024167633 -0.032704264 -0.12910378
000070 6b 17 23 be 37 ef d7 3d 41 31 21 bd 1d 97 35 bd
       -0.15926902 0.105436735 -0.039353613 -0.044333566
000080 a1 5f f0 bd 96 ef 01 3e a0 91 bf bc 94 ed 3f bc
       -0.1173699 0.12689051 -0.02338487 -0.011714358
000090 f2 f7 0b 3e fd 67 21 be 96 86 0d be 6c d4 59 be
       0.13668802 -0.15762325 -0.13820872 -0.21272439
0000a0 20 97 1c 3e b6 47 06 3d c7 73 e9 ba 5e 34 be 3c
       0.15292025 0.032783233 -0.0017810994 0.02321833
0000b0 dc e2 0b 3e 70 92 03 3e 91 93 b5 3d b0 b9 e5 3c
       0.13660759 0.1284883 0.08866037 0.028042644
0000c0 7e 00 ec bd c5 ae c2 bd 99 8d 8a 3e 4a 2b 81 bd
       -0.115235314 -0.09505991 0.27061155 -0.06307085
0000d0 bc 25 0a be f7 35 6a be 4a 65 87 bd 9b 5f ef bd
       -0.13490957 -0.22872148 -0.06611116 -0.11688157
0000e0 a6 4b 8d 3d 08 9f b3 bd e0 af 63 bd dc 1a 19 3e
       0.068991944 -0.08770567 -0.05558765 0.14951652
0000f0 f4 85 bb 3d 43 c6 94 bc b1 df 9a 3b e2 28 5b 3c
       0.09156409 -0.018160945 0.004726373 0.013376446
000100 d0 5f 8d bd e4 14 33 3d 0a 9a 9e 3d d8 b2 85 bc
       -0.069030404 0.043721095 0.07744224 -0.01632063
000110 cd 66 0d 3e df 2c a3 3c 82 ec 32 be cc 09 65 3d
       0.13808747 0.019918857 -0.17473033 0.055917546
000120 88 34 d5 3d c4 69 bd 3d 88 91 24 bd 8f 76 24 bd
       0.1041041 0.09248689 -0.040177852 -0.04015213
000130 af 90 80 3d 77 9a 74 bc 2b c3 dd bd b9 e4 1f bd
       0.06277596 -0.014929405 -0.10828241 -0.039036486
000140 95 ce 1c b9 09 e6 bd 3d f6 5d 3c 3e 54 2c 0c be
       -0.00014954277 0.09272391 0.18395218 -0.13688785
000150 0c 9b 86 bb fb 61 c2 bd b4 31 1d 3e 5e cf 81 bc
       -0.0041078385 -0.094913445 0.15350991 -0.01584595
000160 57 55 8d 3d dc 31 f3 3c 72 e7 c6 3d a6 39 de bd
       0.06901043 0.02968686 0.097121134 -0.10850839
000170 f0 82 d8 3d 51 a9 bc 3c eb 41 ac bd d7 82 bf 3d
       0.10571849 0.023029955 -0.0841101 0.093511276
000180 fe 84 24 bd 33 fe 1b bd 5e c9 9b 3d 2f 27 e6 bd
       -0.040165894 -0.03808422 0.07606767 -0.112379424
000190 17 7d ed bd dd 12 80 3d c4 96 71 3d 16 0c 2f be
       -0.115961246 0.06253598 0.058981672 -0.17094454
0001a0 59 95 3a be d9 63 7f bc d9 44 0f 3d c6 a6 f0 3d
       -0.18221034 -0.01558777 0.034977768 0.117505595
0001b0 8a 91 9f bd 07 58 5b bd 5f 8d c2 bd d3 35 b1 bc
       -0.07791431 -0.053550746 -0.09499621 -0.02163211
0001c0 05 2c 95 3d 47 53 a6 3d bd 17 e9 3d e4 e4 ac 3d
       0.07283787 0.08121353 0.11381481 0.08442095
0001d0 80 cf f5 bc 24 c3 a1 bd 29 17 08 3c f5 02 a2 3d
       -0.03000617 -0.07898548 0.008306303 0.0791072
0001e0 d9 79 60 bc e7 5b 7f 3d 53 bf f2 3d a8 d7 56 bd
       -0.013700926 0.062343504 0.118528984 -0.05245176
0001f0 90 ed f5 3b 32 b5 d5 39 55 58 9a 3d 62 6f a2 bd
       0.0075051263 0.00040761527 0.07536379 -0.07931401
000200 06 dc ac bd 45 4e 7d bd 47 c6 23 be c3 11 e4 3d
       -0.08440404 -0.06184222 -0.15993606 0.111362
000210 21 f8 66 3d 64 7c 9e 3c d0 96 fe bd fc 23 8a 3d
       0.056388978 0.019346423 -0.12431109 0.06745145
000220 75 4f 93 3c f1 8a b1 3d 78 20 61 bd 5a bf 88 bd
       0.017982224 0.08669079 -0.054962605 -0.066771224
000230 f5 20 1b be ec b6 3d 3d af b9 28 be 4c a3 e6 3d
       -0.15149291 0.046317026 -0.16477083 0.11261615
000240 5c 47 c3 3c ee 7e 06 bc 36 c8 ca bd 17 54 17 bd
       0.023837738 -0.008208973 -0.099014685 -0.03694543
000250 4e 94 0b be b9 49 d8 bd 2f a7 f7 bd 58 94 a7 3d
       -0.13630792 -0.105609365 -0.120924346 0.08182591
000260 e8 25 02 be 99 6b 68 3c 71 83 be 3c 64 4f 80 bd
       -0.12709773 0.0141858095 0.023256036 -0.062651426
000270 91 c0 92 bd 33 88 10 3e 2d f2 60 bd 67 64 80 3d
       -0.071656354 0.14114456 -0.054918457 0.0626915
000280 e3 f4 89 bd 95 cc 8a bd e0 83 23 bd eb 52 23 3e
       -0.067361616 -0.06777302 -0.039920688 0.159496
000290 2d 52 2e bd 10 b2 d5 bd 2c 4b 04 3c 3a 2a 8d 3d
       -0.042558838 -0.10434353 0.008074563 0.0689282
0002a0 b9 c2 4e bd 79 77 e5 3d 12 21 b0 3d 54 99 df 3d
       -0.05047867 0.11204428 0.08600058 0.10917917
0002b0 04 49 7d bd 6e 2b f9 bc c9 d8 c7 3d f0 20 e9 3d
       -0.06183721 -0.030416217 0.09758145 0.113832355
0002c0 cf cd 55 3c 39 77 a0 bd e8 49 52 bd c4 d8 2f 3c
       0.013049557 -0.0783524 -0.051340014 0.010732833
0002d0 5f e6 c6 3d 7c 6a fb bd 4b 0e 06 3d dc c5 e1 3d
       0.097119085 -0.1227617 0.032728475 0.11024067
0002e0 54 3b ec 3c 3c d2 c8 3d a6 24 cf 3b f0 88 c5 3d
       0.028836884 0.09805724 0.0063215075 0.096452594
0002f0 8d 6c af bd 81 19 8a bd d8 31 0a be 14 80 04 be
       -0.08565626 -0.06743146 -0.13495576 -0.12939483
000300 18 68 cb 3d b1 e5 83 3c e6 81 24 be 0c 03 c5 bd
       0.09931964 0.016100736 -0.16065177 -0.09619722
000310 c4 41 82 bc 63 ed f1 3c b4 83 ee 3d 7e 4f d4 bd
       -0.0159005 0.02953214 0.11646214 -0.103667244
000320 90 0d da bc 5a f6 b4 bd 07 4a dc 3d 4c f9 02 bc
       -0.026617795 -0.0883605 0.10756307 -0.007994007
000330 5c 3d 26 3e 24 1b 9c bd a8 7c b6 bd c3 e3 75 bd
       0.16234344 -0.07622364 -0.08910495 -0.060031664
000340 d5 99 97 bd 49 97 4f 3c 68 8e 3a bd 89 f1 0b bd
       -0.07402388 0.012670347 -0.045545965 -0.034165893
000350 85 a9 49 3e 4a 8e 16 3e 84 e2 2f be 95 db 52 bc
       0.19693573 0.14702716 -0.17176253 -0.012869735
000360 16 b7 03 bd 28 cc f0 3c 9c fd fc bc 5e 6b 83 3c
       -0.032157026 0.029394224 -0.03088265 0.016042408
000370 b6 2e 04 3e e1 33 85 3d 23 5d c1 bd f8 71 05 3b
       0.12908444 0.06504036 -0.094415925 0.002036212
000380 6a 7b 07 bd 4d 21 a0 bd b0 56 56 bd b1 a9 b5 3b
       -0.03307668 -0.078188516 -0.052328765 0.0055439104
000390 ca fa c4 3d c5 51 d7 3d 34 ec bd 3d 74 ad d5 3d
       0.09618147 0.10513643 0.09273568 0.10433474
0003a0 09 b9 14 3d 19 43 66 3b 77 7b 33 3d 9c c7 10 3d
       0.036309276 0.0035135208 0.043818917 0.035346612
0003b0 0f c5 80 bc fe a6 d6 3b 04 c6 c5 bd 45 2f f8 bd
       -0.015718965 0.0065506687 -0.09656909 -0.12118391
0003c0 1c 32 96 bc ab d8 03 3b 8a 4c 1e ba 65 04 59 bc
       -0.01833444 0.0020118158 -0.0006038627 -0.013245677
0003d0 a1 0d af bd ca 70 d4 3d 0a 6e 44 3d 85 a1 cf 3d
       -0.085475214 0.10373075 0.047956504 0.10138229
0003e0 86 08 e1 bd 50 97 c2 3d 85 f3 1b 3e e5 cf 93 bd
       -0.10987954 0.09501517 0.15229614 -0.07217387
0003f0 83 6d c2 3d ea 7d d2 bc fd ef 47 bd 1f 12 08 3e
       0.09493544 -0.025694806 -0.048812855 0.13288163

net.0.bias f4 [150]
000000 70 f2 d0 3d e5 d6 89 bd 68 23 15 bd e6 f0 21 3d
       0.10202491 -0.06730441 -0.03641072 0.03953638
000010 f8 81 0f 3d 81 6c 43 3d d8 a3 c5 bd 8a c1 ee 3d
       0.035036057 0.0477109 -0.09650391 0.116580084
000020 f6 20 f2 3d da 63 37 3d 5e 61 11 bd 1a cc 8a bc
       0.11822693 0.04477296 -0.035493247 -0.016943026
000030 69 db c2 bd 5c 8e e2 39 c0 e9 3e bd aa 8e 8f 3d
       -0.095145054 0.00043212145 -0.04660964 0.07009633
000040 61 9d df 3d 1d fb dc 3d d0 ec 04 be 92 1d 1a 3b
       0.109186895 0.107900836 -0.12980962 0.002351616
000050 ee ec a3 bd 90 a3 dd 3d 88 36 09 bc 7a 5c 9e 3d
       -0.08004175 0.10822213 -0.008374818 0.07732482
000060 0e 9b 79 3d 42 15 3f 3c 95 33 86 bd 1e 26 9a bc
       0.060938887 0.011662783 -0.06552807 -0.018817004
000070 1d 02 7e bd 39 34 04 3e ea 21 5f bc 87 00 b6 3d
       -0.062013734 0.12910546 -0.013618926 0.08886819
000080 9f 6b cf bd 04 c7 7f bd 87 7d c2 3d 2d d7 02 3d
       -0.10127949 -0.062445655 0.09496599 0.03194349
000090 4b 31 0a 3e 85 a3 ec bd cf 7c 7e bd 14 90 e8 3d
       0.13495366 -0.115546264 -0.062130746 0.11355606
0000a0 c5 32 89 3d b6 9d bc bc c6 c2 c8 bd 3a 1c 08 bb
       0.06699137 -0.023024421 -0.09802775 -0.0020768777
0000b0 66 ae a2 3b 8b b3 9d 3c 8b a3 2e bd 6d 56 0e 3d
       0.0049646376 0.019250652 -0.042636435 0.03475039
0000c0 80 b3 f8 bd 32 04 b8 bd 8d 66 74 bd ce 65 e8 3c
       -0.12143612 -0.08985175 -0.059668113 0.028368857
0000d0 19 01 78 3d ed 9f 8c bd cf 1b 09 3e 3c 0d c2 bb
       0.06054792 -0.06866441 0.13389514 -0.005921988
0000e0 81 eb 89 3d 2e 56 d5 bd de c0 ae bd 46 15 d5 3d
       0.06734372 -0.10416828 -0.0853288 0.10404448
0000f0 ab 76 de bc d0 f4 a4 3d 5e a7 97 bd 04 be bc bd
       -0.027156195 0.08054507 -0.0740497 -0.0921593
000100 76 26 a8 bd f0 44 0a 3e fb 47 cc 3d 68 6d f0 bd
       -0.08210461 0.1350286 0.09974667 -0.117396176
000110 fd e8 5c 39 b7 7d 98 3d 73 6b 59 bd 39 5a ee 3b
       0.0002106763 0.07445853 -0.053080987 0.007273939
000120 0b e3 44 bc e5 f3 9d bd 4b b8 62 3d 75 84 76 3c
       -0.012017022 -0.07712535 0.055351537 0.015046229
000130 b1 b7 f4 bc 6c be c9 bd 6e 9b 18 3c 4e 21 03 3b
       -0.029872747 -0.09850773 0.009314401 0.0020008865
000140 29 a1 0d bc 90 dc 73 3d b4 70 cc 3d dd f9 00 be
       -0.008644381 0.059536517 0.09982434 -0.12595315
000150 d9 d7 cb 3d 45 6b 4b bd 6e b2 cb 3d 84 a1 1d bd
       0.09953279 -0.049662847 0.09946142 -0.03848411
000160 d7 fb 84 3d 96 ae ab 3d 6a c2 ea bd 78 88 db 3d
       0.06493347 0.08382909 -0.11462863 0.10719389
000170 c1 33 8b ba c5 19 8e 3d e4 97 ce bc 5d 34 cb 3d
       -0.0010620282 0.06938509 -0.025218911 0.09922097
000180 6a 34 2f 3d 96 23 8c 3d ca 25 e7 3d c9 17 b5 bd
       0.042774595 0.06842725 0.112865046 -0.08842427
000190 01 5e ed bd 37 2c e7 3d c1 15 ae bd ad bf fe bd
       -0.115901954 0.1128773 -0.08500243 -0.12438903
0001a0 70 6e 9c bd e7 ea fb bc 1b 18 c4 3b 9f 80 c4 3d
       -0.07638252 -0.030751659 0.005984319 0.09594845
0001b0 f6 e5 00 be 46 f0 f4 bd fb 17 d5 bd a1 e1 9c bd
       -0.12587723 -0.11959891 -0.104049645 -0.07660223
0001c0 6d 3b da 3d c1 5a 09 be 1f ab fd bd 9f cc e8 3d
       0.10655866 -0.13413526 -0.123861544 0.113671534
0001d0 21 9d a9 3d 8d 8d 6e 3d c7 33 ad 3d 15 a9 bf 3d
       0.08281923 0.058240462 0.08457141 0.09358422
0001e0 32 e4 68 bd 73 3b 0a bc 5c fb d9 3d 6c b7 c9 bd
       -0.05685825 -0.008437025 0.10643646 -0.09849438
0001f0 a5 33 1e 3b 8a ef bf 3d 67 05 cf bd 55 3d 0a be
       0.002413967 0.0937186 -0.10108452 -0.13499959
000200 18 50 1b bd fd ed 73 bd 4f 39 fa 3d e3 99 04 3d
       -0.03791818 -0.059553135 0.12217962 0.03237332
000210 c7 75 b2 bd aa da 9a 3d d3 0f 84 bd ef 9c be bd
       -0.087138705 0.07561238 -0.06448331 -0.093072765
000220 c6 b1 66 bd 57 f3 f9 bc a4 db f4 3d 06 98 ef bd
       -0.05632188 -0.030511541 0.119559556 -0.11698918
000230 ce d8 8e 3d ae 9d 33 bd bd f4 03 3e 0a 51 4b bd
       0.06974946 -0.043851547 0.12886329 -0.04963783
000240 e8 26 a1 3c 49 65 9d 3d 68 97 09 3d f2 51 25 bc
       0.019671872 0.07685334 0.033591658 -0.010090338
000250 9b 38 3b bc 72 56 84 3d
       -0.01142707 0.06461801

net.1.weight f4 [150]
000000 ff db 76 3f cb 4b 7f 3f 1e fc 72 3f e2 ea 82 3f
       0.9642944 0.99725026 0.9491595 1.022793
000010 0d 7c 7b 3f 84 a1 76 3f 41 4d 83 3f e1 0d 6d 3f
       0.9823616 0.96340203 1.0257951 0.925993
000020 38 3d 7b 3f f3 ef 81 3f d7 e8 7a 3f b2 b1 75 3f
       0.9814029 1.0151352 0.98011535 0.95974267
000030 d6 8c 82 3f 1d da 7c 3f 1a 4d 82 3f 95 02 8b 3f
       1.019923 0.98770314 1.017978 1.0860163
000040 eb 67 7d 3f f3 6a 7b 3f 1c ed 79 3f 9f 50 73 3f
       0.9898669 0.98210067 0.97627425 0.95044893
000050 da d8 85 3f c8 d7 72 3f bf 84 82 3f 61 52 73 3f
       1.0456803 0.94860506 1.0196761 0.95047575
000060 a9 b1 85 3f e2 fc 70 3f 0d 73 6c 3f 26 e0 73 3f
       1.0444843 0.9413587 0.92363054 0.952639
000070 40 9e 76 3f c9 e2 85 3f 5a 79 7e 3f 1d 74 80 3f
       0.9633522 1.0459834 0.9940392 1.0035435
000080 83 d9 83 3f 01 20 7f 3f 6d a3 6e 3f b6 ff 78 3f
       1.0300754 0.9965821 0.9321812 0.97265184
000090 18 a1 77 3f cf ca 88 3f 60 fc 6f 3f 5f 6a 72 3f
       0.96730185 1.0686892 0.9374447 0.9469356
0000a0 d6 fc 7f 3f 43 b6 7e 3f cc 60 70 3f 76 86 78 3f
       0.9999517 0.9949686 0.938977 0.9708017
0000b0 f5 57 7b 3f 28 aa 85 3f 3f 51 83 3f 56 6d 7a 3f
       0.98181087 1.0442553 1.0259169 0.97823083
0000c0 f1 87 88 3f 41 32 82 3f fb 3f 70 3f b5 fb 72 3f
       1.0666486 1.0171586 0.93847626 0.94915324
0000d0 f8 67 7f 3f 26 32 85 3f 82 d2 7f 3f 6c 74 87 3f
       0.9976802 1.0405929 0.99930584 1.0582404
0000e0 74 11 82 3f 7b 9b 84 3f eb f2 82 3f 09 0f 7a 3f
       1.0161576 1.0359949 1.0230383 0.9767919
0000f0 c5 7b 86 3f 20 d5 83 3f 92 4c 76 3f e2 d6 83 3f
       1.0506521 1.0299416 0.9621059 1.0299952
000100 55 3c 7d 3f ef ad 65 3f 0d 09 88 3f 08 3d 86 3f
       0.98920184 0.89718527 1.0627762 1.0487375
000110 6f 8d 6b 3f e6 c4 85 3f 3d f6 84 3f 4b cf 82 3f
       0.92012686 1.0450714 1.0387646 1.0219511
000120 1e bf 78 3f cc 11 72 3f 13 c9 72 3f a9 c8 8b 3f
       0.9716662 0.94558406 0.94838065 1.0920612
000130 63 7b 76 3f 3f d3 72 3f 6b 83 81 3f 58 04 68 3f
       0.96282023 0.94853586 1.011823 0.9063163
000140 be e8 78 3f 35 b8 85 3f 85 f2 78 3f f4 18 7d 3f
       0.97230136 1.044684 0.97245055 0.988662
000150 3e 6a 82 3f 33 22 7e 3f 5b 99 83 3f 3d 15 7d 3f
       1.0188673 0.99270934 1.0281175 0.9886053
000160 fe ab 87 3f c5 5b 87 3f 20 93 85 3f ef 3f 86 3f
       1.0599363 1.0574881 1.0435524 1.0488261
000170 a5 b5 87 3f 8e 19 73 3f 2f 4a 78 3f 98 9e 85 3f
       1.0602309 0.9496087 0.96988195 1.0439024
000180 3a e3 82 3f e5 e4 87 3f 60 8f 72 3f 78 a3 86 3f
       1.0225594 1.0616728 0.9475002 1.0518637
000190 7a ca 77 3f c7 58 78 3f 22 dd 7e 3f d3 82 78 3f
       0.9679333 0.97010463 0.9955617 0.9707462
0001a0 7f c8 82 3f 46 1e 83 3f 29 30 77 3f 85 23 72 3f
       1.0217437 1.0243614 0.9655786 0.9458545
0001b0 1b 59 6d 3f 47 10 82 3f 40 c4 74 3f 0c 7b 84 3f
       0.9271409 1.0161217 0.95611954 1.0350051
0001c0 28 27 78 3f 1d 0a 87 3f 86 7c 7d 3f bf ca 80 3f
       0.9693475 1.0549961 0.9901813 1.0061873
0001d0 b8 81 8c 3f 23 8c 83 3f 0e 12 7c 3f 0d 83 71 3f
       1.0977087 1.0277141 0.9846505 0.9434059
0001e0 2a 65 72 3f 55 b4 84 3f 00 cc 86 3f 95 b4 80 3f
       0.94685614 1.0367533 1.0531006 1.0055109
0001f0 bd 22 6a 3f c3 eb 85 3f cc 50 7c 3f a0 56 7a 3f
       0.91459256 1.0462574 0.98560786 0.9778843
000200 07 9e 82 3f 99 c8 75 3f a6 38 78 3f 15 bc 72 3f
       1.0204476 0.9600921 0.9696144 0.9481824
000210 9b df 88 3f 60 f6 6a 3f 45 89 84 3f 31 77 82 3f
       1.0693239 0.9178219 1.0354391 1.0192624
000220 1e ae 7d 3f 30 7a 72 3f aa 59 84 3f e9 0c 83 3f
       0.99093807 0.94717693 1.0339863 1.0238315
000230 ce 01 81 3f bb cb 7f 3f c2 c0 7a 3f a0 d3 7d 3f
       1.0078676 0.99920243 0.97950375 0.9915104
000240 c0 31 83 3f e2 ea 7e 3f bd f1 7a 3f 2e 01 88 3f
       1.0249557 0.9957715 0.98025113 1.062536
000250 75 a8 78 3f 82 ad 88 3f
       0.97132045 1.067795

net.1.bias f4 [150]
000000 b5 cf 29 bd 9d 45 af bc c3 a8 0c bd c8 59 f1 bb
       -0.04145785 -0.021395499 -0.03434063 -0.007365439
000010 3c a1 37 bd 4b 31 09 bd 63 e7 a6 3b 89 d6 b6 bd
       -0.0448315 -0.033494275 0.0050935014 -0.08927638
000020 ef 48 64 bc d6 e1 97 3c a2 46 c1 bc df ac 5b bd
       -0.013933404 0.018540304 -0.02359325 -0.05363166
000030 78 1b 54 bc 8f 14 51 bd ea 2d ac 3c 43 d4 4d 3d
       -0.012946002 -0.051044997 0.021017987 0.050251257
000040 ac f4 f7 bc c1 0b 0d 3d 91 79 ed 3c 79 76 44 bd
       -0.030268036 0.034435038 0.028988631 -0.047964547
000050 8e a5 65 bd 96 a4 85 3b 7d 87 00 bd 11 22 ca bd
       -0.05606609 0.004078458 -0.03137921 -0.09869779
000060 77 5a 44 3b e9 53 c0 bc 61 6c 18 bd 75 97 3f bd
       0.0029961148 -0.023477511 -0.037212733 -0.0467753
000070 52 df 77 bd 5b 44 2d 3d 01 8c 29 bd e8 ec 42 3b
       -0.06051571 0.042301517 -0.041393284 0.0029743258
000080 4d c2 d5 3b ae ee 07 3d fd 49 be bc cd 7b 21 bc
       0.0065234066 0.033186607 -0.02322864 -0.009856177
000090 29 10 4e bd d6 9f 96 bb 80 34 75 bc 55 c8 69 bb
       -0.05030838 -0.0045966906 -0.01496613 -0.0035672386
0000a0 11 b6 9a bb 8d d4 0b bd e4 6c 8d bd f6 c5 1a bd
       -0.004721411 -0.03413825 -0.06905535 -0.037786447
0000b0 38 f8 d2 bc 9f cb d6 bc af 22 be 3b 58 82 39 bd
       -0.025753126 -0.026220141 0.0058024745 -0.04529032
0000c0 1f 95 57 3c 63 6e 3e bd 7d 02 8b bd 5b da 0f bd
       0.013158112 -0.04649199 -0.06787584 -0.03512035
0000d0 82 8a c0 bc c7 2d 2c bd 3b 47 69 bd 44 fc 8c 3c
       -0.023503546 -0.042035844 -0.056952696 0.017210133
0000e0 28 03 00 bd 16 b7 8d 3c ff f0 54 3b ff 82 62 bb
       -0.03125301 0.017299216 0.0032492278 -0.0034562943
0000f0 d6 c0 99 3c 93 0c b3 bd a0 fd 8d bc 28 e8 a9 3a
       0.01876871 -0.08742633 -0.017332852 0.0012962865
000100 d7 06 14 bd 8a 2a 14 bd 1f 80 e3 bd 2b 7a 1d bd
       -0.036139335 -0.03617338 -0.111084215 -0.038446587
000110 ac b1 a7 bd dc 77 29 bc 55 11 ef b9 dc a1 7e 3c
       -0.08188185 -0.010343518 -0.00045598546 0.01554152
000120 b0 88 81 3c 43 c9 84 3b 8a f9 e8 bd 83 82 ce 3c
       0.015812248 0.0040523126 -0.11375721 0.025208717
000130 bf 2a 07 bb 40 cc 97 bd 1d d8 4a bd 41 4e df 3b
       -0.0020624844 -0.074120045 -0.049522508 0.0068147485
000140 8d d3 34 bd ee 35 f8 3c 70 45 c0 ba 3e 5f 80 ba
       -0.044147063 0.030299153 -0.0014669131 -0.0009794009
000150 8f 67 e0 bb 4b 16 ab bd da d7 2e bd 85 43 9f bd
       -0.0068482826 -0.083538614 -0.04268632 -0.0777655
000160 35 4c c1 3b 14 26 d8 3c 09 eb 29 3d ec 28 5b 3c
       0.005898977 0.026385345 0.041483913 0.013376456
000170 f1 6c 43 bd 92 70 06 bd 80 01 b8 bc 86 f0 ac bd
       -0.047711316 -0.0328222 -0.022461653 -0.08444314
000180 f9 c3 99 3c 56 a5 1c 3c 4e 17 ef bc 5e 73 ee 3b
       0.018770205 0.0095609035 -0.029185917 0.0072769364
000190 8f 6e cb bc a7 49 28 bd e3 be 1d bd 03 72 9b bd
       -0.024832992 -0.041085865 -0.038512122 -0.075901054
0001a0 6c 52 20 3b ab 6d 16 3d 85 d9 2f bd b7 b6 bd bc
       0.002446319 0.03672568 -0.042932052 -0.023158414
0001b0 f1 87 6a bc 4c 37 49 bd 70 44 42 3d 88 c2 96 bd
       -0.0143146375 -0.049125 0.04742855 -0.07361323
0001c0 49 1e b2 bd 9b 98 9d 3d c2 85 73 bc 81 48 0f 3d
       -0.08697183 0.07695123 -0.014863433 0.034981254
0001d0 2d ea 8f bd 5c 55 e0 bc 96 a9 42 bd a8 f9 b2 bd
       -0.07027087 -0.027384453 -0.04752501 -0.087390244
0001e0 31 41 ad bc 96 fa 53 3d b3 6a 49 3d e2 38 3a ba
       -0.02114925 0.05175265 0.049174022 -0.0007103813
0001f0 2b 94 b3 bd dd 1f 49 3c 84 a8 a0 bc ea e9 62 bd
       -0.08768495 0.012275663 -0.019611605 -0.05539886
000200 cc 4a da 3c 15 7a fe 39 0e 53 9d bd 7d d9 35 bc
       0.026646994 0.00048537613 -0.07681857 -0.0110992165
000210 eb a4 46 3d 9b 78 67 bd 41 e9 01 bd 1c 00 61 bd
       0.04849712 -0.056511503 -0.03171659 -0.054931745
000220 7b df 42 bd ae 67 ab bd f7 b7 89 bd 87 f9 c7 bc
       -0.04757641 -0.08369385 -0.06724542 -0.024410976
000230 d7 2b 5e bb 77 f3 37 bc 69 9a 8f bd 2f 56 72 3c
       -0.0033900642 -0.01122748 -0.07011873 0.014791056
000240 89 eb 72 bc 01 e2 a3 bd 80 70 1d bb 49 61 fd bd
       -0.014826664 -0.08002091 -0.0024023354 -0.12372071
000250 f8 34 8d bb 84 05 70 bd
       -0.004309293 -0.05859901

net.1.running_mean f4 [150]
000000 09 bb 1e 3e ed ab c4 bd 15 ab d1 bd bf 47 2d bc
       0.15501036 -0.09603105 -0.102377094 -0.010576188
000010 55 78 0d 3e d4 4d c5 3d 7a 95 aa bd fa 38 5f 3e
       0.13815434 0.09633985 -0.08329292 0.21799079
000020 ca 23 41 3e ba ac fa 3d f0 5e 56 3c 8a 9a 99 bd
       0.18861309 0.12239976 0.013084158 -0.07500179
000030 27 31 98 bd c0 82 bd 3c 05 1c b0 bd ee 98 02 3e
       -0.0743125 0.023133636 -0.08599094 0.1275365
000040 70 08 a0 3d c8 fa 15 3e 57 d2 4d be 28 46 0f bc
       0.07814109 0.14646447 -0.2009977 -0.008744754
000050 dc 52 f9 bd 40 2b 04 3d 09 93 46 bd 1b 5a 01 3e
       -0.12174007 0.03226781 -0.048480067 0.12632029
000060 23 69 02 3e ee 81 d4 3d e4 a8 72 3c b7 ee aa bd
       0.12735419 0.103763446 0.0148107745 -0.083463125
000070 40 a9 83 bd 89 7d 29 3e fc ef ee bd 08 de 8f 3c
       -0.06428766 0.16551794 -0.11666867 0.017561927
000080 11 2a a3 bd 2e f8 d0 bd f2 1c e6 3d 04 fc d2 3c
       -0.07967008 -0.102035865 0.1123599 0.025754936
000090 c6 0b 62 3e 8b f2 59 be 6c 8f 48 bd 59 77 99 3d
       0.22074804 -0.21283929 -0.048964903 0.07493467
0000a0 ab b9 11 3d d2 83 9c bd aa 4b f7 bd 80 a8 68 bd
       0.035577457 -0.0764233 -0.12074979 -0.05680132
0000b0 1b 3d 78 bd ce 22 ab bc 26 a5 2b 3d 6a 1a 35 3d
       -0.06060515 -0.02089062 0.041905545 0.044214644
0000c0 18 fc b7 bd ee 58 92 bd 81 01 b7 bd b6 e8 6b bd
       -0.0898363 -0.07145868 -0.08935834 -0.057594977
0000d0 7a 8e 22 bc 2c 06 b5 bd 43 24 1a 3e 44 b4 2d 3d
       -0.009921664 -0.08839068 0.15052895 0.042408243
0000e0 94 06 28 3e 64 89 85 bd 78 6d c4 bd 78 27 07 3e
       0.1640876 -0.06520346 -0.09591192 0.1319865
0000f0 5d 86 93 bd 42 12 01 3e 5f cb cb bd ee a8 a2 bd
       -0.07203362 0.12604621 -0.09950899 -0.07942377
000100 4f fb a8 bd 5a c0 e3 3d d8 2b 83 3d d4 95 1f be
       -0.08251058 0.111206725 0.06404847 -0.15584499
000110 22 d6 15 bd 1e b1 ca 3d 4e 8b e6 bc 82 0d 13 3d
       -0.036581166 0.09897064 -0.028142598 0.035901554
000120 9e d8 10 bd 2b 97 c8 bd 15 6f 8e 3d e0 b5 7b bc
       -0.035362832 -0.09794458 0.06954781 -0.015363187
000130 9e 33 fb 3c 0e 1c bd bd 2a 9f 44 3d dd e8 0f 3d
       0.030664261 -0.09233867 0.048003353 0.035134185
000140 65 8e 35 bd ee 3b 92 3d 1b f6 5c 3d dc 3a a8 bc
       -0.04432525 0.07140337 0.053945642 -0.020535879
000150 fe 4c 7f 3d 00 eb 8f b9 d4 b1 f7 3d 0c 06 ea bd
       0.062329285 -0.00027450174 0.12094465 -0.114269346
000160 82 e6 c4 3d 10 08 aa 3d aa de 38 be db 20 98 3d
       0.096142784 0.08302319 -0.1805369 0.07428142
000170 23 87 ca bc 51 9f 2a 3d 22 a4 db bd 7a 0f d4 3d
       -0.024722641 0.041655842 -0.10724665 0.103545144
000180 63 ae b1 3d 12 5c e7 3d f8 2a 5b bc 50 d9 cd bd
       0.0867584 0.11296858 -0.013376944 -0.10051215
000190 dd fe 86 be 37 b9 2f 3e a8 ed aa bd 0e c8 0f be
       -0.2636632 0.17160498 -0.083461106 -0.14041159
0001a0 18 c9 d0 bd 01 40 fb 3c d0 5e 6a bd 4b 8b db 3c
       -0.101946056 0.030670168 -0.057219326 0.026799819
0001b0 a4 92 d9 bd 42 ac 6c be d6 87 2b be f2 a6 a4 bd
       -0.106236726 -0.23112586 -0.16751036 -0.08039655
0001c0 4c 31 37 3e ba 47 06 be 80 21 fa bd 4f 13 a0 3d
       0.17889899 -0.13113299 -0.12213421 0.07816183
0001d0 ae 8d 98 3d 96 18 cd 3d c6 d5 01 3e 92 14 54 3d
       0.07448898 0.10014455 0.12679204 0.05177743
0001e0 f8 93 02 be 2a 37 14 3d b9 99 45 3e 6e 9f 8a bd
       -0.12751758 0.03618542 0.19296922 -0.0676869
0001f0 e7 00 00 3d 28 d6 dd 3d b6 44 c8 bd 1e 24 2b be
       0.03125086 0.10831863 -0.097787306 -0.16712996
000200 c8 41 85 3c cc 6d c3 bd 0a c8 df 3d 18 f1 d3 3d
       0.016266719 -0.095424265 0.10926826 0.10348719
000210 ec ee a8 bd f3 28 11 3e 75 5e 95 bd 4a d4 dd bd
       -0.08248696 0.14175777 -0.07293407 -0.108315066
000220 38 79 4f bd 60 79 bd bd cc 8c ea 3c 1c 07 48 be
       -0.050652713 -0.09251666 0.02863159 -0.19533962
000230 29 75 1b 3d bd 00 02 bd 05 ff 09 3e 5b 32 61 bd
       0.03795353 -0.031738985 0.13476188 -0.054979663
000240 89 af a1 bd 2b 0e f9 3d 60 b6 e4 3d ab e6 a8 bd
       -0.07894809 0.121609055 0.11167598 -0.082471214
000250 4b 53 5f 3d 7d 41 b2 3d
       0.054522794 0.08703897

net.1.running_var f4 [150]
000000 49 29 8f 40 90 ac 97 40 03 9b 65 40 a4 d1 7a 40
       4.4737897 4.7398148 3.5875862 3.9190454
000010 7c 32 8d 40 4d eb 83 40 3d 0e 5e 40 88 d3 d3 40
       4.4124126 4.1224732 3.469619 6.6195717
000020 10 5e a0 40 2b cf 7a 40 47 70 98 40 30 b4 6e 40
       5.0114822 3.9188945 4.7637057 3.7297478
000030 92 ca 91 40 04 20 38 40 40 a3 5a 40 00 42 52 40
       4.555978 2.876954 3.416214 3.2852783
000040 80 d6 82 40 ed 0d a3 40 1f d6 8c 40 e1 a0 67 40
       4.088684 5.09545 4.401138 3.6191943
000050 10 26 54 40 f2 0b 98 40 12 70 30 40 d9 86 62 40
       3.3148232 4.751458 2.7568402 3.5394804
000060 c4 2a 75 40 37 c2 88 40 fa 8a 94 40 2c e1 93 40
       3.8307352 4.273708 4.641965 4.621237
000070 32 5e 3a 40 e4 42 78 40 93 66 a9 40 d3 e3 55 40
       2.9119992 3.8790827 5.2937713 3.3420303
000080 85 5a 8e 40 fb 8d 8f 40 da 49 a2 40 1e 84 5a 40
       4.4485497 4.4860816 5.071515 3.4143138
000090 96 c8 7d 40 51 2c 83 40 52 2b 4f 40 20 0b 6c 40
       3.9653678 4.0991597 3.237019 3.688179
0000a0 5b 20 5c 40 a3 ea 69 40 08 e8 89 40 5d d9 7d 40
       3.4394748 3.654946 4.309574 3.9663918
0000b0 1b 0b 87 40 66 64 91 40 dc 90 aa 40 09 76 a0 40
       4.2201056 4.5435057 5.330183 5.0144086
0000c0 ec 9d 64 40 4c 80 41 40 30 83 28 40 67 b8 88 40
       3.5721388 3.0234556 2.633007 4.27251
0000d0 29 d4 9d 40 9c b5 90 40 a4 01 89 40 6d 81 86 40
       4.9321485 4.522169 4.2814503 4.203299
0000e0 0e 23 ad 40 24 05 9a 40 88 45 78 40 ec c6 a5 40
       5.410529 4.8131275 3.8792439 5.1805325
0000f0 25 f6 99 40 92 36 86 40 c5 19 a3 40 54 1f 6b 40
       4.811297 4.1941614 5.0968957 3.673787
000100 77 3c 88 40 c8 02 72 40 57 f9 60 40 db e0 82 40
       4.257381 3.7814198 3.5152185 4.089948
000110 46 97 47 40 dd 2e 46 40 ab b0 73 40 d1 11 75 40
       3.118608 3.0966103 3.807658 3.8292124
000120 61 29 4f 40 ba 9c 8f 40 49 b4 b7 40 af 82 63 40
       3.2369006 4.4878817 5.7407575 3.5548513
000130 2a 20 8b 40 d3 9f 85 40 4d 4a 73 40 bb 39 71 40
       4.3476763 4.17576 3.80141 3.7691486
000140 55 3c 2f 40 25 bd 8d 40 7d e0 71 40 cd bc 8f 40
       2.7380574 4.429339 3.7793267 4.491797
000150 22 4a 46 40 4c 11 56 40 90 ea 86 40 b5 51 8a 40
       3.0982747 3.3448057 4.216133 4.322474
000160 ff 45 5a 40 d5 96 6c 40 23 70 5f 40 85 eb 94 40
       3.4105222 3.696706 3.4912193 4.65375
000170 0f 09 54 40 6d ec 6d 40 fd ea 84 40 d2 75 87 40
       3.313053 3.7175553 4.153685 4.2331324
000180 40 b4 45 40 18 1c 80 40 4c de bd 40 f2 e2 ad 40
       3.0891266 4.0034294 5.933386 5.4339533
000190 d0 75 97 40 ed cc 9e 40 a5 7f 96 40 c3 28 55 40
       4.7331314 4.9625154 4.7030816 3.330613
0001a0 40 c7 a7 40 47 0f 49 40 b6 fd 80 40 b1 1c 2b 40
       5.2430725 3.1415575 4.0309706 2.6736262
0001b0 b6 39 82 40 a4 93 99 40 cb ef 94 40 5a ea 2d 40
       4.069545 4.7992725 4.6542716 2.7174287
0001c0 70 d3 a1 40 dc f9 7f 40 2b 1f 97 40 5d c5 99 40
       5.0570602 3.9996252 4.7225547 4.805342
0001d0 8a 1f 62 40 bf 93 94 40 02 d9 5f 40 70 42 b0 40
       3.533175 4.6430354 3.49762 5.50811
0001e0 3e b0 22 40 0f dd 41 40 2a 41 59 40 75 2a 7d 40
       2.542007 3.0291173 3.3946023 3.9557164
0001f0 0e 97 6b 40 48 22 31 40 b5 89 63 40 2e 55 63 40
       3.6810946 2.7677174 3.55528 3.552074
000200 ac 35 4c 40 59 c5 82 40 d5 f0 8d 40 2b a8 a4 40
       3.1907759 4.0865903 4.4356484 5.1455283
000210 e9 ab 22 40 96 5b af 40 35 09 94 40 49 02 9f 40
       2.5417426 5.47993 4.626124 4.969029
000220 43 57 a8 40 74 35 ad 40 f3 f6 94 40 6c 83 84 40
       5.260652 5.412775 4.655145 4.1410427
000230 cf fb 95 40 6a 12 37 40 aa ac 54 40 11 e3 71 40
       4.6869884 2.860499 3.3230386 3.779484
000240 e7 77 85 40 d1 dd 2b 40 2e f1 63 40 0c eb 84 40
       4.1708865 2.6854136 3.5615954 4.1536922
000250 af 43 ba 40 bf 37 65 40
       5.820762 3.5815275

net.3.weight f4 [75, 150]
000000 42 da c2 bc c1 cd 37 bd 61 1f 2e 3c 55 d8 07 3c
       -0.023785714 -0.044873957 0.0106275985 0.008291324
000010 aa 27 64 bd ae 9e fd bc 2f ff db bb e3 33 a3 bd
       -0.05570189 -0.030959453 -0.00671377 -0.07968881
000020 96 b7 72 bd 22 66 ab 3c 2a 96 0a bd e2 f1 c0 bd
       -0.059257112 0.020922724 -0.033834614 -0.094211355
000030 9d 2a 86 bd 3c b4 dd bc 36 f2 21 3c fe 10 2b bd
       -0.065510966 -0.027063482 0.009884408 -0.041764252
000040 fa d1 09 bd 2b 02 84 3d 34 c9 04 bd a3 78 7f bd
       -0.033647515 0.06445726 -0.032418445 -0.062370908
000050 be 64 e9 bd 9a 59 91 3d 9a 09 76 bd 04 e4 70 bd
       -0.11396168 0.07097168 -0.06006775 -0.058811203
000060 13 4e 81 3d b3 4c ed bd 33 b0 af 3d ca 64 91 bd
       0.063137196 -0.11586895 0.08578529 -0.07099302
000070 59 17 0c bd b7 a2 30 bd 04 99 ad bd bc 5f df bc
       -0.034201954 -0.043123927 -0.08476451 -0.02726733
000080 56 46 c1 3c 35 f8 ed 3c 5f 04 95 3c 3f c6 ac bd
       0.02359311 0.029049018 0.01819056 -0.0843625
000090 8b fc 41 3c 23 d9 89 3b 1b 4e 95 bb 72 9c 86 3d
       0.011839996 0.004206793 -0.00455643 0.06572808
0000a0 89 81 58 bb 79 48 ae 3c d6 46 9b bd db bf 88 bd
       -0.0033036193 0.021274792 -0.0758187 -0.066772185
0000b0 ea 79 45 3d a6 2b 1f bd 46 86 93 bd 4d d6 05 3d
       0.04821197 -0.038859986 -0.07203345 0.032675076
0000c0 be 58 6d 3b d4 d6 00 3d d1 9c ae bb 62 9d 6f 3d
       0.0036216225 0.031454876 -0.0053287526 0.0584997
0000d0 01 28 fb 3c 5c d1 f6 bc 18 cd 3e 3d d9 55 78 3d
       0.030658724 -0.030129127 0.04658231 0.060628746
0000e0 41 5e 7a bd f4 09 f3 3c 04 a2 bc bd 0d a5 96 bd
       -0.061125044 0.029667832 -0.092105895 -0.073557
0000f0 ae 52 28 bd 8b b8 b9 bd 93 df 72 3c ad 94 f2 3b
       -0.041094474 -0.09068402 0.014823812 0.0074029774
000100 ab 48 2d bd 17 1e 1e 3d ed be eb bd df dc 81 bd
       -0.04230563 0.038602915 -0.115110256 -0.06340956
000110 14 fd d0 bd 1b 39 0c 3d 0f 0e 17 bd 62 49 f0 3b
       -0.10204521 0.034234148 -0.03687864 0.0073329667
000120 cb 61 20 bd 25 4a a2 3d 17 b8 63 bd 52 af 0f 3d
       -0.039155763 0.07924298 -0.055595484 0.035079308
000130 60 6a 03 bd d6 ef 3c 3d 34 3f 08 3d c8 8e 28 bc
       -0.03208387 0.046127163 0.0332634 -0.010287948
000140 a1 fb 0a 3d 88 3b 7e bd aa ca 14 be 36 81 56 bd
       0.03393138 -0.062068492 -0.14530435 -0.05236932
000150 41 67 a7 3c 83 c3 a5 bb d1 f2 3b bd fe 2f cf bd
       0.020434977 -0.005058707 -0.045885865 -0.10116576
000160 78 64 70 3c 5b f9 05 3d 85 fb 22 bd 94 97 1e bd
       0.014672391 0.032708507 -0.03979065 -0.038718775
000170 0c ef f5 3b ca ed 95 bb a6 bc ce bd b1 29 00 3e
       0.0075053032 -0.004575466 -0.100945756 0.12515904
000180 da d1 42 3b 19 0b 4d 3d 22 ff 8d bd e2 90 b8 bd
       0.0029727132 0.05005941 -0.06933428 -0.09012009
000190 34 2a a0 bd a6 16 98 bd d5 d4 02 3d 3c e5 4b 3d
       -0.078205496 -0.07426195 0.031941254 0.04977916
0001a0 9f 18 b7 bd d0 b5 2f bb 1a 42 72 bd 73 17 61 3d
       -0.08940243 -0.002681125 -0.05914507 0.054954004
0001b0 20 eb be 3c 9f 2d d8 bd 37 b7 02 3d 15 cf 26 3d
       0.023305476 -0.105555765 0.03191301 0.040724833
0001c0 bc e6 84 3d e0 1b 1e bc 11 a4 54 bd 52 49 5c bc
       0.064893216 -0.009650201 -0.05191428 -0.013445215
0001d0 3c 37 80 bd 59 ee df 3d 24 d2 94 bd 0f cf ba 3c
       -0.06260535 0.10934133 -0.07266644 0.022803811
0001e0 2f 8c f6 bd dd 20 fd 3d 85 14 a5 bd ef f8 d7 3c
       -0.12038457 0.12359784 -0.080605544 0.026363818
0001f0 23 04 ca bc 9a ff ef bd c4 9c d6 bd 15 6e 56 3d
       -0.024660176 -0.11718674 -0.104791194 0.052351076
000200 b9 e8 bf 3c 33 2e 98 3d e7 c6 3e 3b 18 74 f3 3c
       0.0234264 0.07430687 0.0029110254 0.029718444
000210 0c 7a f8 bc d7 9f 96 bd c9 70 ce bc 73 f4 a8 3d
       -0.030331634 -0.07354706 -0.025200265 0.0824975
000220 63 fc 92 3d 1a 77 97 bd f6 1c 84 bd bd 2b 7f bc
       0.07177045 -0.07395764 -0.06450836 -0.015574393
000230 d5 63 e7 bd bd 32 78 3d cb 2c 4a 3d 8d 26 e7 bc
       -0.11298338 0.060595263 0.049359124 -0.028216625
000240 77 b3 e5 bc da a0 96 3d 72 a3 5b 3d 06 74 2d 3d
       -0.028039677 0.07354899 0.05362267 0.042346977
000250 63 dd 05 bb 4d 22 92 3d 03 fa 2b 3d 10 c8 97 bc
       -0.0020426146 0.071354486 0.041986477 -0.018528014
000260 05 d4 a0 bc f3 c1 7b 3c 5b 9f 15 3d 9f d6 8e 3d
       -0.019632349 0.015366065 0.036528926 0.069745295
000270 7e b0 e5 bd 59 db 21 bc d6 62 63 3d 7d 0f 9a bc
       -0.11215304 -0.009878957 0.05551418 -0.018806214
000280 61 2c 16 3d 18 7a 0f bd 2f 94 37 3d df 78 85 3d
       0.036663417 -0.035028547 0.044819053 0.06517195
000290 9a 47 39 bd 7c 36 3b bd 43 b6 82 bc a3 1a b4 bd
       -0.0452343 -0.045706257 -0.01595605 -0.08794143
0002a0 47 c5 d8 3c 50 c8 8f 3c 91 aa 33 bc 0e b2 36 bd
       0.026461257 0.017551571 -0.010965959 -0.0446034
0002b0 17 ef 80 3d 2a 8a eb bc 33 e2 73 bd e3 94 0f bd
       0.06295603 -0.028752405 -0.059541892 -0.0350541
0002c0 24 ec b5 3c 0e 14 bf bd 51 ec a3 bd 55 35 f4 bd
       0.022207327 -0.09329997 -0.08004058 -0.11924235
0002d0 87 d2 a0 bd 66 5a 00 3c 5d 90 4c bd 0d af 01 bd
       -0.07852655 0.007834053 -0.049942363 -0.031661082
0002e0 41 2f c9 bd 0a 0f 88 3d b2 9e 9f bd dc e3 1f 3e
       -0.09823466 0.066434935 -0.077939406 0.15614265
0002f0 d4 be 2a 3c 00 a8 2b 3d 82 10 08 bd 3a 93 d5 bc
       0.0104214735 0.041908264 -0.033218868 -0.02607118
000300 25 23 9d bb 7f f5 5d 3c 86 f8 bc bc d8 58 4b bd
       -0.0047954493 0.0135473 -0.023067724 -0.049645275
000310 46 e0 3f 3d 9d 92 4d 3d fe 22 8a bc de 53 ed 3d
       0.046844743 0.05018865 -0.016862389 0.11588262
000320 d2 b3 57 bd 98 88 e9 ba 7a 47 cd 3d 40 11 8f bd
       -0.052661724 -0.0017817197 0.10023399 -0.06985712
000330 bf de c3 3d 45 51 9d 3a 7b 3f 9b ba 69 0a 94 bd
       0.0956397 0.001200237 -0.001184448 -0.07228548
000340 c8 3f 96 bd 7a 7d 09 bd 84 24 98 bd 34 b7 1a be
       -0.07336384 -0.03356693 -0.0742884 -0.15108949
000350 e3 63 8f bd 7f 3b 9f bd 5e cd a8 bc 5f 40 04 bd
       -0.07001474 -0.0777502 -0.02060574 -0.03228795
000360 a7 8c 3d bd b9 14 0a be f4 4e df bd 4d ec dc 3c
       -0.046276715 -0.13484468 -0.10903731 0.026968146
000370 e1 e0 8a bd d8 79 4d bb f1 f9 7a ba fc 06 a1 bc
       -0.067811735 -0.0031353142 -0.00095739873 -0.01965665
000380 a9 87 37 bd d6 d3 0a 3d ed 03 8d 3d 00 d4 14 bd
       -0.04480711 0.03389343 0.068855144 -0.03633499
000390 98 1f 1c bd fa 4b a3 bd fc f3 be 3d f0 91 45 3d
       -0.038116068 -0.07973476 0.0932388 0.04823488
0003a0 78 3e b1 bd 28 a7 29 3d 06 35 79 3c 15 ac b6 3d
       -0.08654493 0.04141918 0.015210396 0.08919541
0003b0 06 fc 2e 3d 7b 8c 0a be d0 28 87 bd 67 95 94 3c
       0.042720817 -0.13530152 -0.06599581 0.018137647
0003c0 d1 db 0d 3b 31 c6 6c bc 7f fd 03 bd 3f e2 f2 bc
       0.0021645913 -0.014451549 -0.032224175 -0.029648898
0003d0 52 8c 36 bd 97 95 7a bd c3 22 e7 bd e0 95 8c 3d
       -0.044567414 -0.061177816 -0.11285927 0.06864524
0003e0 47 86 c4 bd 37 91 8f bd d9 d6 77 bd d1 0b 5a 3d
       -0.09595924 -0.070101194 -0.06050763 0.053233925
0003f0 ed c0 d5 bd 41 e8 bb 3d b7 4c c7 3c 1b 45 9a bd
       -0.10437188 0.09175158 0.024328573 -0.07532712

net.3.bias f4 [75]
000000 4b 37 61 3d 12 c9 a2 3d 9f 0a 91 bb ba ab a1 3d
       0.054984372 0.07948507 -0.004426315 0.07894082
000010 c9 e8 05 3d 05 34 93 3d ea 07 81 bd 7f b3 7d ba
       0.032692704 0.07187656 -0.063003376 -0.0009677931
000020 59 32 80 bd 04 4f 2a bb 86 c9 84 3d a6 a3 97 bd
       -0.06259603 -0.0025987038 0.0648375 -0.0740426
000030 26 b1 76 3d 17 a9 67 3d 7a 23 1b bd cd eb 79 3d
       0.060227536 0.05655774 -0.03787563 0.061015893
000040 83 81 32 bd 0a ef b7 3c 38 e4 38 bc bb b9 6f 3a
       -0.043580543 0.02245285 -0.01128488 0.00091448025
000050 33 4a ac bd 40 2a 83 bc a4 22 94 3d b7 77 73 3d
       -0.0841259 -0.016011357 0.0723317 0.05944034
000060 dc 20 60 3d 76 cf 48 bc 87 e6 80 3d 4a aa 04 3d
       0.054718837 -0.012256494 0.062939696 0.032388963
000070 98 c5 9d bd 9b be 5a bc d1 50 49 bd bb 48 0c bd
       -0.07703704 -0.013351108 -0.04914934 -0.03424905
000080 23 84 9e bd c7 f5 c4 bc 4d e9 8d bd 25 ac 0e 3d
       -0.07740047 -0.024042977 -0.06929264 0.03483214
000090 f2 8c 61 3d 4c 2e 6c bd ec a6 aa bb 90 11 61 3d
       0.055066057 -0.05766134 -0.005207887 0.05494839
0000a0 97 5b 19 bd b6 ab 25 3d 96 ed f5 3c 4c ae 82 3d
       -0.037440863 0.04044696 0.030020516 0.06380901
0000b0 d7 e6 9e 3c b5 ce 24 bd b7 65 9f bd 6f e6 41 3d
       0.019397182 -0.040236194 -0.077830724 0.0473389
0000c0 d9 e0 22 bd a3 76 56 3c 84 78 77 3c 1c 58 dd 3c
       -0.039765213 0.013089809 0.015104417 0.027019553
0000d0 8f 03 a8 3d 2a 64 96 3d 81 f7 e0 3c e0 4d 95 3d
       0.08203804 0.073433235 0.027461769 0.07290244
0000e0 ce d2 c1 3a d1 94 81 3d 58 d7 22 bb 5f 63 06 3c
       0.0014787556 0.063272126 -0.0024847593 0.008202403
0000f0 6e 80 fd 3c 4d e0 c8 3c 44 98 99 3d 9d 5d 21 bd
       0.03094503 0.024521017 0.074997455 -0.039395917
000100 03 38 61 bd e9 14 7e bd c9 8d 1d 3c 25 2c 37 3c
       -0.054985058 -0.06203166 0.009616324 0.0111799585
000110 0a 49 a5 bc 1b 8c ab 3c c0 32 02 3d 3d 81 47 bd
       -0.02017643 0.02094083 0.03178668 -0.048707236
000120 6f 9a 86 bc 58 e9 90 bd b0 12 29 bc
       -0.016431062 -0.07075757 -0.010319397

net.4.weight f4 [75]
000000 ab b2 6c 3f 1e dc 7f 3f 15 2b 7a 3f de 31 7f 3f
       0.92460126 0.9994525 0.9772199 0.99685466
000010 5b 94 7d 3f e7 85 80 3f 29 5b 74 3f 17 49 82 3f
       0.990545 1.0040864 0.954516 1.0178555
000020 6f 98 83 3f 7d ac 78 3f ee 7c 7f 3f 61 98 77 3f
       1.0280894 0.97138196 0.998 0.96716887
000030 22 68 84 3f 05 32 85 3f 30 ac 78 3f 58 5c 80 3f
       1.0344279 1.040589 0.9713774 1.0028181
000040 a7 93 70 3f 0d a2 73 3f 6d ef 80 3f c9 c9 80 3f
       0.939753 0.95169145 1.0073067 1.006158
000050 d3 2f 73 3f bc 1b 7a 3f 20 84 82 3f 83 61 67 3f
       0.9499485 0.9769857 1.0196571 0.90383166
000060 34 94 83 3f b4 c7 7d 3f 54 07 85 3f 91 11 71 3f
       1.0279603 0.9913285 1.0392861 0.9416743
000070 03 3e 80 3f f5 71 82 3f b9 a1 7b 3f c2 c9 6f 3f
       1.0018924 1.0191027 0.98293644 0.93667233
000080 5c c3 84 3f a8 0c 86 3f 16 e6 6f 3f a6 f2 83 3f
       1.0372119 1.0472612 0.9371046 1.0308425
000090 c7 dc 89 3f c3 28 66 3f f2 7f 81 3f 28 ba 70 3f
       1.0770501 0.8990595 1.0117171 0.9403405
0000a0 38 e7 88 3f 00 05 80 3f b7 98 7f 3f b4 2d 82 3f
       1.0695562 1.0001526 0.998424 1.0170197
0000b0 e8 d1 85 3f 32 f7 73 3f 43 32 78 3f 40 3e 7b 3f
       1.0454683 0.95299065 0.96951693 0.9814186
0000c0 c8 b1 7d 3f 35 99 89 3f d5 f4 71 3f 56 f4 72 3f
       0.990994 1.074988 0.9451421 0.9490408
0000d0 6c f7 7d 3f 94 0c 84 3f 21 ad 84 3f 12 f4 87 3f
       0.9920566 1.0316339 1.0365335 1.0621359
0000e0 c5 75 7c 3f 6f cf 86 3f 29 1c 78 3f a3 66 7a 3f
       0.986172 1.0532054 0.9691797 0.9781286
0000f0 3a 2f 7f 3f 34 9d 7f 3f 82 88 7f 3f e7 da 84 3f
       0.99681437 0.9984925 0.9981767 1.0379304
000100 67 29 82 3f 96 d8 7b 3f 7a 61 84 3f 36 05 7c 3f
       1.0168885 0.9837736 1.0342247 0.9844545
000110 09 a9 81 3f 27 8c 7d 3f 4b 12 82 3f a7 5e 76 3f
       1.012971 0.9904198 1.0161833 0.9623818
000120 0c 0d 69 3f fd 3d 86 3f 2d 39 85 3f
       0.9103553 1.0487667 1.0408074

net.4.bias f4 [75]
000000 8d fd 03 be 3a 5a 36 3d 12 0b 54 bd f8 f7 9e bc
       -0.1288969 0.04451964 -0.05176837 -0.01940535
000010 c0 e9 85 bd bb 7b a9 bd e4 81 9a bd 90 18 bd bd
       -0.06538725 -0.08275553 -0.07544306 -0.092332006
000020 41 f2 a6 bc bd c0 69 bd 4e 07 dc bd 63 b3 9d bd
       -0.020379188 -0.057068575 -0.10743581 -0.07700231
000030 4f 2e 6e bd e1 ab c5 bb 21 bb 73 bd 5b 08 df bc
       -0.058149632 -0.0060324525 -0.059504632 -0.027225664
000040 8d 85 a1 bd 0e 9e 03 bd 26 a9 d7 bd 54 e6 33 bd
       -0.07886801 -0.032133155 -0.105303094 -0.04392083
000050 9e 93 c2 bd f2 af a0 bd 6e e9 1f bd 24 42 81 bd
       -0.09500812 -0.07846059 -0.039040975 -0.063114434
000060 dd b2 27 bd 4b a5 57 bd 26 b4 53 bd ac 21 4f bd
       -0.04094206 -0.05264787 -0.051685475 -0.05056922
000070 39 9f 23 bd 0d bd 0d be e9 00 a4 bd d1 1a 1e bc
       -0.03994677 -0.13841648 -0.08007986 -0.009649948
000080 2e 69 61 b9 b6 29 d0 bd 88 12 f4 bc be 6a 29 3b
       -0.00021496855 -0.10164206 -0.029793993 0.0025850977
000090 45 95 a5 bc 26 27 80 bd aa b1 83 bd 69 bb e2 bd
       -0.020212779 -0.06257467 -0.06430371 -0.11070902
0000a0 3e 46 80 3c fa 95 bc bd 7d 54 d4 bc 5b d9 c6 bd
       0.015658494 -0.09208293 -0.025919193 -0.09709426
0000b0 f2 26 8f bc 44 91 ae bc 2b b6 cf bc 6c 08 97 bd
       -0.017474625 -0.021309502 -0.02535542 -0.07374653
0000c0 c5 d2 eb bd d1 5f 8b bd eb 9b cf bd ef 96 3c bd
       -0.115148105 -0.06805385 -0.10137161 -0.04604238
0000d0 db 37 3c bd 8a 7d fc bc 90 aa dc bb e3 8d 81 bd
       -0.045951705 -0.03082158 -0.0067342 -0.06325891
0000e0 cf a2 62 bd e4 19 22 bb 95 6f f1 bc 45 e5 19 bd
       -0.055331048 -0.002473467 -0.029472152 -0.037572164
0000f0 b7 ae a0 bd 2e 69 ad bc 01 b9 60 bd 05 ad 8b bd
       -0.07845824 -0.021168318 -0.054863933 -0.0682011
000100 3c 30 25 3d dd ee 11 bd f3 7b dd 3c 1d b5 83 bc
       0.040329203 -0.03562819 0.027036643 -0.016077572
000110 2b c8 35 bd 81 7e 59 bd d8 30 84 bd f2 34 82 3c
       -0.04438035 -0.05309916 -0.06454629 0.015894387
000120 b4 59 00 be f7 13 13 bd 2c 02 be bd
       -0.12534219 -0.03590771 -0.09277758

net.4.running_mean f4 [75]
000000 6f 12 33 bf 54 2c 5c bf 4c 1f 3c 3f 3d 95 7c be
       -0.6995 -0.8600514 0.73485255 -0.24666305
000010 5c e9 6d 3e f3 0a f6 be ab fb cb bc 2f 81 fc 3e
       0.23233551 -0.4805523 -0.024900278 0.4931731
000020 50 55 13 bf e9 b1 45 3f 55 6b a2 be 02 e2 f1 bd
       -0.5755205 0.77224594 -0.31722513 -0.11810686
000030 de e4 79 be 2c 42 b4 bd d1 6d cc 3e 96 41 8d be
       -0.24403712 -0.08801684 0.39927533 -0.275891
000040 16 a1 5b be 95 96 f0 bd c1 47 1e bf 94 2d b5 be
       -0.21448168 -0.11747471 -0.6182824 -0.35386336
000050 27 ec b9 be 26 3e 37 3c a0 22 b3 bd 44 e0 31 be
       -0.36312982 0.011184251 -0.087468386 -0.17370707
000060 20 68 85 3e b4 85 2c bf ce 99 16 bf 18 a0 e1 3e
       0.26056004 -0.67391515 -0.5882844 0.44067454
000070 f2 71 6d 3f 12 60 4d bf 5c 1c d3 bd 19 09 40 3f
       0.9275199 -0.80224717 -0.103081435 0.7501388
000080 ba 10 cb 3e bd f5 39 bf bb da 34 bf 61 4a 48 be
       0.396612 -0.7264059 -0.70646256 -0.19559623
000090 97 59 ac be d2 76 ed bd fa 08 8f 3e 1d 17 f5 3c
       -0.33662102 -0.11594929 0.27936536 0.029918248
0000a0 29 fe 37 bf 20 dc 91 bd e6 e2 9d 3e 0e 8e 8a bc
       -0.7187219 -0.07122064 0.30837172 -0.01691344
0000b0 50 3d 55 bf c2 c0 17 be 6c 88 c6 3e 2d 63 a7 be
       -0.8329668 -0.14819625 0.38775957 -0.32692853
0000c0 2d c2 c5 be a5 d4 06 bf cf 75 8f be ca 97 09 bf
       -0.38624707 -0.5266822 -0.28019568 -0.53747237
0000d0 3c 97 9f be f0 79 06 3f c6 ca 80 bf f1 80 83 be
       -0.3117007 0.5252981 -1.0061882 -0.25684312
0000e0 51 0f af 3e 22 03 e3 bc 42 5a 89 bc ec fe fc be
       0.34191373 -0.027711455 -0.016766671 -0.4941324
0000f0 8b 68 32 bf a8 69 d9 3e 0e 0e 07 bf 5c 7f b6 3e
       -0.6969077 0.42463422 -0.5275582 0.35644042
000100 2e e5 7e 3e 79 e2 07 3f 5d 7b 8c bd f2 6d 99 be
       0.24892113 0.53079945 -0.06859467 -0.29966694
000110 b4 f5 7d 3e d9 69 7f be 36 8a d4 3e 78 c8 8a be
       0.2480076 -0.24942721 0.41511697 -0.2710607
000120 d7 e7 21 bd b5 b8 5a be b8 99 01 bf
       -0.03952774 -0.21359523 -0.5062518

net.4.running_var f4 [75]
000000 74 b3 b5 3e 29 1b 01 3f c2 36 e8 3e 2d 6d 00 3f
       0.35488474 0.5043207 0.45354277 0.5016659
000010 c1 a9 d3 3e 69 23 e7 3e 2a 58 b8 3e fc e6 2e 3f
       0.4134045 0.45144203 0.36004764 0.68321204
000020 45 bb ca 3e 79 96 d8 3e 8e 89 b8 3e 1f 9b 63 3e
       0.39596 0.42302302 0.36042446 0.22227143
000030 ca c0 88 3e 8f 25 de 3e 2f 7b ae 3e 55 bf d3 3e
       0.26709586 0.4338803 0.34078357 0.41356912
000040 b6 83 b8 3e 3f a5 ce 3e 78 e3 e5 3e a9 e9 e8 3e
       0.36037987 0.40360448 0.44900107 0.4549077
000050 f5 31 c1 3e 62 79 a0 3e 19 60 ce 3e a2 82 9f 3e
       0.37733427 0.31342608 0.40307692 0.31154352
000060 04 da cf 3e 66 23 ef 3e 7e a3 04 3f 02 93 c4 3e
       0.4059602 0.46706694 0.5181197 0.38393408
000070 4a e0 06 3f 0a 27 ab 3e a9 85 a9 3e ac df 0b 3f
       0.5268599 0.33428222 0.33109787 0.5463817
000080 37 b1 06 3f c7 3e a9 3e f8 65 03 3f 73 b9 09 3f
       0.5261416 0.33055708 0.51327467 0.537986
000090 94 73 fb 3e 03 c4 c8 3e 4f 2e 02 3f 03 e3 ce 3e
       0.49111617 0.39212045 0.5085191 0.4040757
0000a0 d4 3d f8 3e 79 06 ff 3e d0 55 09 3f 1c 6e d1 3e
       0.4848467 0.49809626 0.53646564 0.4090432
0000b0 ac fe c3 3e 6f d7 d7 3e d1 22 d8 3e b8 04 cd 3e
       0.38280237 0.4215655 0.42214063 0.40042663
0000c0 04 b6 ae 3e ea ff a0 3e 81 67 9a 3e a1 fc d1 3e
       0.34123242 0.31445247 0.30157092 0.41013053
0000d0 25 e3 9a 3e ca 3e eb 3e 2a ec cb 3e 20 aa 05 3f
       0.30251423 0.45946342 0.39828616 0.52212715
0000e0 45 53 f1 3e 11 c8 da 3e 15 6e 85 3e 3a 35 a5 3e
       0.47133842 0.42730764 0.26060548 0.3226717
0000f0 8e 89 d1 3e 1e 99 92 3e e4 17 06 3f 9b 3c e0 3e
       0.40925258 0.28632444 0.52380204 0.43796238
000100 c2 22 a4 3e de 9a a2 3e 2f 65 07 3f a2 f2 01 3f
       0.32057768 0.3175878 0.5288877 0.50760853
000110 e9 cf e6 3e 33 d8 c6 3e 2c 0c ab 3e 82 a5 ab 3e
       0.45080498 0.38836822 0.33407724 0.3352471
000120 04 b6 95 3e c6 7d d7 3e e6 73 f5 3e
       0.2924043 0.42088145 0.47939986
